models/iris.pt (torch, 6442 bytes, 6 tensors)

model.0.weight f4 [25, 4]
0	0xbeb1d182	-0.34730154
1	0x3ecc352c	0.39884317
2	0xbea92956	-0.3303935
3	0x3e7e8b8c	0.2485792
4	0xbdc6cff8	-0.09707636
5	0xbeac7350	-0.33681726
6	0xbe409bf0	-0.18809485
7	0x3eef050e	0.46683544
8	0xbdc726b3	-0.09724178
9	0xbc315eca	-0.010825822
10	0x3f385169	0.7199922
11	0x3f199059	0.5998588
12	0x3f16c76c	0.58898044
13	0xbd90eebf	-0.07076787
14	0xbeed97c6	-0.46404856
15	0x3b0b6014	0.0021266984
16	0x3eb3c4b7	0.3511102
17	0xbef2f026	-0.47448844
18	0x3e1f85a4	0.15578324
19	0x3f003cd9	0.50092846
20	0xbe609588	-0.21932042
21	0x3e3bb134	0.18329316
22	0xbe9a0590	-0.3008237
23	0xbe985634	-0.29753268
24	0x3d804570	0.06263244
25	0xbe362489	-0.17787375
26	0x3e515ccc	0.20445555
27	0x3f2dd8dd	0.6790903
28	0xbda5ea10	-0.081012845
29	0xbede6688	-0.434376
30	0xbee8d076	-0.45471543
31	0x3e2f0f18	0.17095602
32	0x3e053fdf	0.13012646
33	0x3f237d44	0.63863015
34	0xbdd6eab1	-0.104939826
35	0xbf38184f	-0.7191209
36	0x3f301c14	0.68792844
37	0x3eebdcda	0.46066934
38	0x3ca4fb9b	0.020139506
39	0x3dd4c7a3	0.1038964
40	0xbe8c635e	-0.2741956
41	0xbe7760e8	-0.2415806
42	0x3d6adb40	0.057338
43	0xbe7dedb8	-0.24797714
44	0x3edabecf	0.427237
45	0xbeb13a79	-0.34614924
46	0x3f269b26	0.6508049
47	0x3f16dc93	0.5893032
48	0xbec29a4b	-0.3800834
49	0xbdf817f8	-0.12113947
50	0x3ea6a3e7	0.32546923
51	0xbe8155e5	-0.25260845
52	0x3ec15e7d	0.377674
53	0xbe479ca3	-0.19493346
54	0x3eaddbc8	0.33956742
55	0x3f1616a1	0.5862828
56	0x3edd6bd0	0.43246317
57	0x3e29af48	0.1657077
58	0xbed63954	-0.41840613
59	0xbf1a207e	-0.6020583
60	0xbea865ed	-0.32890263
61	0x3e97983d	0.29608336
62	0x3e864fed	0.26232854
63	0x3e9df6c9	0.30852345
64	0xbed1818e	-0.40919155
65	0x3ea11028	0.3145764
66	0x3b517400	0.003196001
67	0x3e042d04	0.12907797
68	0xbef42640	-0.47685432
69	0xbe7dc9b8	-0.24783981
70	0x3d7d7600	0.06188011
71	0x3e7b01cc	0.24512404
72	0xbed726ec	-0.42021883
73	0x3d089820	0.033348203
74	0xbd64ff60	-0.055907607
75	0x3ed84ca8	0.42245984
76	0x3e3c9d95	0.18419488
77	0x3f18a193	0.5962154
78	0xbe994a1f	-0.29939362
79	0xbf03133d	-0.5120123
80	0x3cc4aac0	0.024007201
81	0xbec6b7e2	-0.38812166
82	0xbd9ced10	-0.076624036
83	0x3e8c3bdc	0.2738942
84	0xbe5195fc	-0.20467371
85	0xbe95d984	-0.29267514
86	0xbea3cec0	-0.31993675
87	0xbe15ac10	-0.14616418
88	0xbe229a77	-0.15879236
89	0x3db6240c	0.08893594
90	0x3e834f13	0.25646266
91	0x3e9d8090	0.30762148
92	0x3f21a39a	0.6314026
93	0xbe952968	-0.29133153
94	0xbee27b8a	-0.44234878
95	0xbd9cd526	-0.07657842
96	0x3efc3536	0.49259347
97	0xbd8aec94	-0.06783405
98	0xbe1a3dc0	-0.15062618
99	0xbf1997b1	-0.5999709

model.0.bias f4 [25]
0	0x3b965f00	0.0045889616
1	0xbe742c30	-0.23844981
2	0xbe7d46c6	-0.24734029
3	0x3f0b6658	0.5445304
4	0x3e0cc775	0.13747962
5	0x3bd3de00	0.0064656734
6	0x3ecf9a8b	0.40547594
7	0x3ea46150	0.32105494
8	0x3ee89491	0.45425847
9	0xbe5e8ee9	-0.21734203
10	0xbeb085a8	-0.34476972
11	0x3dc196af	0.09452569
12	0x3eaca67d	0.3372077
13	0x3ccdd850	0.02512756
14	0x3f32b6fd	0.6981047
15	0x3df3e6ec	0.11909279
16	0xbe203034	-0.15643388
17	0xbeb920d0	-0.36157846
18	0xbecb84ce	-0.3974976
19	0x3e939e9c	0.28831947
20	0xbee49cce	-0.44650882
21	0xbc787c80	-0.015166402
22	0xbd94b638	-0.07261318
23	0x3e884725	0.2661678
24	0xbe669665	-0.22518308

model.2.weight f4 [30, 25]
0	0xbdf07497	-0.11740988
1	0xbe4cb3e0	-0.19990492
2	0xbd01012b	-0.031495254
3	0xbde1742f	-0.110084884
4	0x3b3cd1b2	0.0028811512
5	0x3d33ce14	0.043897703
6	0xbe09e8ae	-0.13467667
7	0x3d7f76c4	0.062369123
8	0xbe384467	-0.17994843
9	0xbdadd6f4	-0.08488265
10	0x3e1fcbad	0.1560504
11	0x3d047c70	0.032345235
12	0xbe40c3f8	-0.18824756
13	0xbdfe8e1c	-0.12429449
14	0x3db3e3b3	0.087836646
15	0xbc9f139f	-0.019418536
16	0xbdca77c3	-0.09886124
17	0x3e239561	0.15974952
18	0x3bb3ac40	0.0054831803
19	0x3d8743e3	0.06604745
20	0xbe1fbe2a	-0.15599886
21	0x3e28331b	0.16425745
22	0xbe3fc300	-0.1872673
23	0x3e36e7f3	0.17861919
24	0x3e067671	0.1313112
25	0x3dce3d32	0.10070266
26	0xbe0c6738	-0.1371125
27	0xbd90fc5c	-0.07079384
28	0xbe292cf4	-0.16521055
29	0xbd8f0bbf	-0.06984662
30	0xbd714160	-0.058900237
31	0x3d7bc356	0.061465584
32	0x3dffd146	0.124910876
33	0xbe0b2f14	-0.13592178
34	0xbe5356bd	-0.20638557
35	0xbd855aca	-0.06511457
36	0x3db6ab31	0.08919371
37	0xbcafa84d	-0.021442557
38	0xbe092f5c	-0.13396972
39	0x3d4c0ff4	0.0498199
40	0xbe7b6b72	-0.24552706
41	0xbd35a600	-0.044347763
42	0x3e421ecd	0.18957062
43	0xbd7e428c	-0.062075183
44	0xbe0ee18c	-0.13953227
45	0x3e3c8679	0.18410672
46	0x3e0c69ef	0.13712285
47	0x3d0af8ed	0.0339288
48	0xbe67eacf	-0.22648166
49	0xbda0ab86	-0.078452155
50	0xbe0e61f5	-0.13904555
51	0x3cf08180	0.029358625
52	0xbe03c73e	-0.12868974
53	0x3e45ef39	0.19329537
54	0x3e2465a8	0.16054404
55	0x3d8e9452	0.069618836
56	0xbd880708	-0.06641966
57	0xbe3f5e7b	-0.18688385
58	0x3e85fbe4	0.2616874
59	0x3df77035	0.12081949
60	0x3d80d92e	0.06291424
61	0xbd89e738	-0.067335546
62	0xbe407be8	-0.18797266
63	0x3dddc9ba	0.10829492
64	0x3e1cedb5	0.15325053
65	0xbd3d543e	-0.046222918
66	0xbdc024da	-0.09382029
67	0x3dcfacf6	0.101404116
68	0xbde8a090	-0.1135875
69	0x3ec9fb14	0.3944937
70	0xbda8958a	-0.08231647
71	0xbda22c9d	-0.079186656
72	0x3bb136d2	0.0054081464
73	0x3eccb924	0.39985
74	0x3e5d929e	0.21637961
75	0xbe1480b0	-0.14502215
76	0xbe3e0c13	-0.18559293
77	0x3d749984	0.059716716
78	0xbe38b547	-0.18037902
79	0x3dce2ed6	0.10067527
80	0xbd17f6c8	-0.037100583
81	0xbd809754	-0.062788635
82	0x3e00652d	0.12538595
83	0x3d0d7d60	0.034543395
84	0xbe20bb25	-0.1569639
85	0x3e146439	0.14491357
86	0xbddbf9a0	-0.107409716
87	0xbc3a83d0	-0.011383966
88	0xbd991394	-0.07474437
89	0x3e033b75	0.1281565
90	0x3dc7a0b2	0.09747447
91	0x3d731dbc	0.05935453
92	0xbda6088d	-0.081071
93	0x3e30a41b	0.17250101
94	0x39da1400	0.000415951
95	0xbcbfff10	-0.023437053
96	0xbdfeb570	-0.1243695
97	0x3d7c0714	0.061530188
98	0xbe059e1a	-0.13048592
99	0xbe31200b	-0.1729738
100	0x3db76c5e	0.08956216
101	0x3d5a6aa4	0.053324357
102	0xbdc16c47	-0.094444804
103	0x3cbcda10	0.023053199
104	0xbd9656d0	-0.07340777
105	0xbe338f8a	-0.17535225
106	0xbe141762	-0.14462045
107	0xbd8cd454	-0.06876436
108	0x3cecd0d8	0.028908178
109	0xbe46ffef	-0.19433568
110	0xbbee8560	-0.007279083
111	0xbbc640c0	-0.0060501993
112	0x3e4b1dab	0.19835536
113	0xbdc33367	-0.095312886
114	0xbd8827fa	-0.0664825
115	0x3ce4a780	0.027911901
116	0xbe1aa98e	-0.15103742
117	0x3cc47ef0	0.02398631
118	0xbe2b1fd2	-0.16711357
119	0xbd84687a	-0.0646524
120	0x3dbb34ba	0.09140916
121	0x3d52a7b4	0.051429465
122	0x3e48b649	0.19600786
123	0xbe40b1b7	-0.18817793
124	0xbe275f25	-0.16344889
125	0x3a136500	0.0005622655
126	0xbc990f18	-0.018683955
127	0xbeac7af6	-0.33687562
128	0x3e194b93	0.14970236
129	0xbd995a67	-0.07487946
130	0x3e42d0bd	0.1902494
131	0xbe15ec9d	-0.14641042
132	0xbe00d042	-0.12579444
133	0x3ea0c2bf	0.3139858
134	0xbd31079e	-0.043220155
135	0xbd261438	-0.040546626
136	0xbd9a8263	-0.075444005
137	0x3ded6e73	0.11593332
138	0xbde1abec	-0.110191196
139	0x3eb7847d	0.35843268
140	0xbddf5d9d	-0.10906527
141	0x3df79302	0.120885864
142	0x3dbaea12	0.091266766
143	0x3e2cf7a1	0.16891338
144	0x3ed63931	0.4184051
145	0x3d03210c	0.032013938
146	0xbdd2d97d	-0.10295389
147	0xbeb0b607	-0.34513876
148	0x3eba2fc6	0.36364573
149	0x3ebd8e50	0.37022638
150	0x3de251ae	0.110507354
151	0x3e0632b1	0.13105275
152	0x3e6bdfc1	0.23034574
153	0xbd80967a	-0.06278701
154	0x3e96b118	0.29431987
155	0x3df98496	0.12183492
156	0x3eb6fcbb	0.35739693
157	0xbd274540	-0.040837526
158	0xbd78ab19	-0.060710046
159	0x3d77d071	0.06050152
160	0x3dc58c56	0.096459076
161	0x3ec21ed0	0.37914133
162	0xbbebdfab	-0.007198294
163	0x3d5a80bf	0.053345438
164	0xbe3c6371	-0.18397309
165	0x3df245c8	0.11829716
166	0x3daac0f6	0.08337586
167	0x3e341105	0.17584617
168	0x3dff802e	0.1247562
169	0xbe790f9c	-0.24322361
170	0xbda69dda	-0.081355765
171	0xbd7d8c78	-0.06190154
172	0x3d8ce919	0.06880397
173	0x3c928e45	0.017890105
174	0xbe918bcc	-0.2842697
175	0x3d14e5d4	0.036351994
176	0xbbb669c0	-0.0055668056
177	0x3e3fd629	0.1873404
178	0xbe35402a	-0.17700258
179	0x3ce4bbd0	0.027921587
180	0xbd3de074	-0.046356633
181	0x3d4634b8	0.04839012
182	0xbd6cec8c	-0.057842776
183	0xbd4a9920	-0.049462438
184	0xbe1f8698	-0.15578687
185	0x3da257e2	0.079269186
186	0xbdef9a5d	-0.11699364
187	0x3c94aad8	0.01814787
188	0xbe063072	-0.13104418
189	0x3d11cb18	0.035594076
190	0xbe456e2d	-0.1928031
191	0xbdfa20f0	-0.122133136
192	0x3c90c390	0.017671376
193	0x3db35532	0.08756484
194	0x3e287a87	0.1645299
195	0xbd6cc3ec	-0.057804033
196	0x3d31c760	0.04340303
197	0xb9e6c000	-0.0004401207
198	0x3d77765c	0.06041561
199	0x3e06c6e9	0.13161816
200	0xbc6cd0b0	-0.014454052
201	0xbe47da8b	-0.19516961
202	0x3eaa4cc5	0.33261696
203	0xbc5a9a7e	-0.013342498
204	0x3e70bf57	0.2351049
205	0xbe2ffee7	-0.17187081
206	0xbd0798de	-0.03310477
207	0xbe00ee0d	-0.12590809
208	0xbe593dd8	-0.21214998
209	0x3e2020ec	0.15637559
210	0x3e299995	0.16562493
211	0x3e24a9f0	0.16080451
212	0x3dc6edb5	0.09713308
213	0x3e45eff5	0.19329818
214	0xbe03ea5a	-0.12882367
215	0x3ea1d50e	0.3160786
216	0x3e459bf1	0.19297768
217	0xbd36b68c	-0.044607684
218	0x3db6602e	0.089050636
219	0xbe8d8a5c	-0.27644622
220	0x3e2b9937	0.16757666
221	0xbe2341b2	-0.1594303
222	0xbc346754	-0.0110109635
223	0xbde206ee	-0.11036478
224	0xbd988ea2	-0.0744908
225	0xbe044acd	-0.12919159
226	0xbe178bea	-0.14799467
227	0x3e88d2c0	0.2672329
228	0xbed7eaee	-0.42171425
229	0x3e8c48d0	0.27399302
230	0xbde655d3	-0.112468384
231	0x3e0c6c12	0.137131
232	0x3cbf4fd0	0.023353487
233	0xbed2c2ab	-0.41164145
234	0x3e565b13	0.2093318
235	0x3e47d561	0.19514991
236	0x3dc9aee1	0.09847809
237	0x3e653e17	0.22386967
238	0x3e9789a8	0.2959721
239	0xbe7b6ca8	-0.24553168
240	0x3c63626f	0.013878449
241	0x3ddd91e2	0.108188406
242	0xbd9d8ac7	-0.07692485
243	0xbd25db58	-0.040492386
244	0xbeab0fa0	-0.33410358
245	0xbdbdbafa	-0.092641786
246	0x3dc9d846	0.09855704
247	0x3cd8a58f	0.026446132
248	0xbeaebc3e	-0.34127992
249	0xbe8f9674	-0.28044474
250	0xbe1878c5	-0.1488982
251	0x3e2379e9	0.15964474
252	0xbe22afee	-0.15887424
253	0x3aba4700	0.0014211833
254	0xbd3cc674	-0.046087697
255	0xbe337bd3	-0.17527704

model.2.bias f4 [30]
0	0xbe5b2bde	-0.21403453
1	0xbdd9202d	-0.1060184
2	0x3e9c7ab9	0.3056238
3	0xbe09ba94	-0.1345008
4	0x3e47e24d	0.1951992
5	0xbd9c4646	-0.07630591
6	0xbdef5820	-0.116867304
7	0xbe428e0a	-0.18999496
8	0xbbe81e72	-0.0070837075
9	0xbe480244	-0.19532114
10	0x3dd08836	0.1018223
11	0xbd7c0b80	-0.061534405
12	0x3e30fc13	0.17283659
13	0x3d0ec254	0.034853294
14	0x3d6a472e	0.05719679
15	0xbcde177a	-0.027110804
16	0x3cf1854d	0.029482508
17	0x3c2b6545	0.010461156
18	0x3dd314fe	0.10306738
19	0x3d19a438	0.037510127
20	0x3dc16f8f	0.09445106
21	0x3e30e00b	0.17272966
22	0xbdfdaf4e	-0.12386952
23	0x3d9f3c92	0.07775225
24	0x3ec08cfb	0.3760756
25	0x3e3a6e73	0.18206196
26	0xbe632aa9	-0.22184242
27	0x3969f800	0.00022312999
28	0xbde144b3	-0.109994315
29	0x3dd28c18	0.10280627

model.4.weight f4 [3, 30]
0	0x3c5a551d	0.013325957
1	0x3d6c401d	0.05767833
2	0x3e1cae29	0.15300812
3	0xbe0db07b	-0.13836853
4	0x3d64e17c	0.0558791
5	0x3ec0c137	0.3764741
6	0xbeb8fb7e	-0.36129373
7	0x3da8a7d8	0.08235139
8	0xbe15e1da	-0.14636937
9	0xbdd60c7d	-0.10451601
10	0x3e316b82	0.17326167
11	0xbd4bfd2c	-0.04980199
12	0x3dc6058c	0.09669027
13	0x3dffb268	0.124852
14	0xbc8090d8	-0.015694067
15	0xbdf83fe1	-0.12121559
16	0xbe195944	-0.14975458
17	0x3e7a50e8	0.24444926
18	0x3be1f4ab	0.006895622
19	0x3ebd25b3	0.36942825
20	0x3e9387d6	0.28814572
21	0x3e2ba146	0.1676074
22	0x3e62e547	0.22157775
23	0xbd79affa	-0.06095884
24	0x3e892ffb	0.2679442
25	0xbe13f0f0	-0.14447379
26	0xbe8f9972	-0.28046757
27	0xbe07c95f	-0.1326041
28	0xbe2a4788	-0.1662885
29	0x3d14d162	0.036332496
30	0x3d44f944	0.04808928
31	0x3d9b4ffb	0.075836144
32	0x3e16394d	0.14670296
33	0x3cae3b00	0.021268368
34	0xbcf5ca38	-0.030003652
35	0xbed1faee	-0.41011757
36	0x3e3469b6	0.1761845
37	0xbde2bf11	-0.11071599
38	0x3de9b724	0.114118844
39	0x3cd37ba6	0.025815796
40	0xbc6f2440	-0.014596045
41	0xbdb29534	-0.087198645
42	0xbe0f1285	-0.13971908
43	0x3e13ce7c	0.14434236
44	0xbba24908	-0.0049525537
45	0x3d975d00	0.07390785
46	0x3e82a20d	0.2551426
47	0x3e341268	0.17585146
48	0xbe3961ee	-0.18103763
49	0x3db90a61	0.09035183
50	0xbe32c5af	-0.17458223
51	0xbd158d44	-0.036511675
52	0xbe24495a	-0.16043606
53	0xbd9eaf51	-0.07748283
54	0x3e3180fe	0.17334363
55	0x3e830fd2	0.25598007
56	0xbd6cc762	-0.057807334
57	0x3e272ecc	0.16326445
58	0xbdb61636	-0.08890955
59	0xbdcb02d8	-0.09912652
60	0x3d6e3e00	0.058164597
61	0x3df2d5a6	0.118571565
62	0xbec693ed	-0.38784733
63	0xbd9bd066	-0.07608108
64	0xbcf79de8	-0.030226663
65	0xbd87e39c	-0.0663521
66	0x3ebb0831	0.36529687
67	0xbd68293c	-0.05667995
68	0x3e79bd88	0.24388707
69	0x3ec615f1	0.38688615
70	0x3dcdb32c	0.1004394
71	0xbe2c5134	-0.16827852
72	0x3ccc9a28	0.024975851
73	0x3d3ef4e8	0.04662028
74	0xbc99517e	-0.018715616
75	0x3ecdddaf	0.40208194
76	0x3ece79c8	0.40327287
77	0xbed75e68	-0.42064214
78	0xbcaf9fac	-0.021438442
79	0xbed8302c	-0.42224252
80	0xbd92a28f	-0.07159912
81	0x3dcb0940	0.09913874
82	0xbda0d542	-0.07853176
83	0xbe223271	-0.15839554
84	0xbeedc4a4	-0.46439087
85	0x3e4c09d7	0.19925629
86	0x3ea9f950	0.33198023
87	0xbe1a5b48	-0.15073884
88	0x3e094f10	0.13409066
89	0x3d41b35c	0.04729019

model.4.bias f4 [3]
0	0x3e5dbd75	0.21654303
1	0x3e558142	0.20850089
2	0xbebed373	-0.37270698
